student_model.pth (torch, 3264 bytes, 4 tensors)

conv1.bias f4 [32]
-0.045599006 -0.03463003 -0.045283977 0.0 0.0 -0.04732321 -0.047047123 0.0
-0.02580569 0.04401923 -0.029708836 0.0 -0.020437058 0.04399393 0.01202042 0.047662545
0.04809617 0.015484009 -0.017156785 -0.04698041 -0.047841836 0.04870773 -0.039160192 -0.04744809
0.0 0.047662884 0.0025946423 0.04868874 -0.045026485 0.0 -0.04451107 0.047964167
00000000: 06c6 3abd 38d8 0dbd b17b 39bd 0000 0000
00000010: 0000 0000 fbd5 41bd 7cb4 40bd 0000 0000
00000020: 7466 d3bc 824d 343d f25f f3bc 0000 0000
00000030: 9e6b a7bc fb32 343d 4cf1 443c cd39 433d
00000040: 7d00 453d a4b0 7d3c 638c 8cbc 886e 40bd
00000050: cdf5 43bd c281 473d 7066 20bd ee58 42bd
00000060: 0000 0000 283a 433d e00a 2a3b d86d 473d
00000070: b16d 38bd 0000 0000 3d51 36bd 1376 443d

conv1.lin.weight f4 [32, 5]
0.35135543 -0.33165386 -0.23432317 -0.27787614 0.36410725 0.30573708 -0.02565241 0.06684179
0.33777803 0.13414301 -0.09570179 -0.08176825 -0.21814089 0.26741478 -0.3566301 -0.3715031
-0.35153627 0.16733557 0.057667762 0.26465845 -0.039827913 0.12404376 0.2996419 -0.039727986
0.19359225 0.15860689 0.13303962 -0.19636197 -0.31365535 0.097920135 0.28140914 -0.26073927
-0.330351 -0.014134791 -0.2659865 -0.40057862 0.14779252 0.12679225 -0.19728883 0.33867496
-0.18830095 0.32562244 0.09889477 0.31445685 -0.23141164 0.12784375 0.3476352 -0.21589193
0.33947608 0.29718167 0.25681224 -0.03626537 0.26816988 0.19629702 0.12315697 0.29642355
-0.04472363 0.3682772 0.10661274 0.3921398 -0.23824666 -0.08081353 0.066340685 0.18164848
-0.2834537 -0.2313967 -0.09068394 0.22416316 0.008277345 -0.22742502 0.36586198 -0.35629082
-0.24883787 -0.13129243 -0.11250375 -0.3266732 -0.28314617 0.26002154 0.1719488 -0.26730585
0.2167216 0.19655894 -0.20758247 -0.12490641 -0.2203718 -0.28125188 0.008284433 -0.24663389
0.21953832 0.14721827 -0.3707028 0.018716931 -0.14010492 0.18737574 0.18160875 -0.17213412
0.010396707 -0.23557834 -0.09267408 0.28684723 0.24671456 -0.095228665 0.28190795 -0.35249883
0.21895812 0.39543843 -0.3621272 0.052178115 -0.07706566 0.07325493 -0.27244696 -0.046278596
0.072187364 -0.19578794 0.24603961 0.020950489 -0.36863965 -0.31960142 -0.15693022 0.392961
-0.31141812 -0.26657826 -0.016208738 -0.021935046 0.2951668 -0.19602418 0.2845071 0.18530695
-0.36864853 0.39950585 0.23253128 -0.30689505 0.32631877 -0.32037416 0.3853837 -0.17736402
-0.01999481 -0.27060267 0.00096939877 -0.24458887 0.16407596 0.14999247 -0.24348858 0.27312368
0.13159665 -0.12043479 0.22583377 0.2513489 0.039692074 0.2174527 -0.27487403 -0.0064186635
-0.2278635 0.010156194 0.07333547 0.29851803 -0.370993 -0.054951083 -0.37073493 -0.40486842
00000000: dce4 b33e 89ce a9be 6af2 6fbe c845 8ebe
00000010: 446c ba3e 9289 9c3e 0125 d2bc 59e4 883d
00000020: 3ef1 ac3e c95c 093e 4dff c3bd 1d76 a7bd
00000030: 5360 5fbe 97ea 883e 3898 b6be a835 bebe
00000040: 90fc b3be 045a 2b3e 0835 6c3d 5081 873e
00000050: 9822 23bd a80a fe3d aa6a 993e d0b9 22bd
00000060: 0c3d 463e d869 223e 8a3b 083e 1d13 49be
00000070: 6f97 a0be 5a8a c83d dc14 903e 9e7f 85be
00000080: c423 a9be 9c95 67bc 622f 88be a418 cdbe
00000090: ec56 173e d4d5 013e 1506 4abe ce66 ad3e
000000a0: f7d1 40be fcb7 a63e 5789 ca3d 7d00 a13e
000000b0: 2cf7 6cbe 79e9 023e 3efd b13e c612 5dbe
000000c0: cfcf ad3e 3228 983e e57c 833e ff8a 14bd
000000d0: 904d 893e 1602 493e b939 fc3d d4c4 973e
000000e0: 2030 37bd d48e bc3e c857 da3d 8cc6 c83e
000000f0: eff6 73be 9081 a5bd a0dd 873d 0f02 3a3e
00000100: d820 91be 42f3 6cbe 80b8 b9bd 078b 653e
00000110: b49d 073c 1be2 68be 4352 bb3e c06b b6be
00000120: 5bcf 7ebe 8671 06be 5e68 e6bd b641 a7be
00000130: 89f8 90be 8b21 853e 5913 303e 50dc 88be
00000140: 44ec 5d3e bf46 493e 8090 54be efce ffbd
00000150: 25a9 61be 3f00 90be 6ebb 073c 988d 7cbe
00000160: a7ce 603e 63c0 163e c2cc bdbe 4054 993c
00000170: aa77 0fbe 6ddf 3f3e a5f7 393e ed43 30be
00000180: f356 2a3c 733b 71be e8cb bdbd a4dd 923e
00000190: bea2 7c3e 3f07 c3bd 3d56 903e ba7a b4be
000001a0: 8f36 603e e876 ca3e bd68 b9be b8b8 553d
000001b0: 9ad4 9dbd ae06 963d 2b7e 8bbe a08e 3dbd
000001c0: f8d6 933d a27c 48be cff1 7b3e 5ca0 ab3c
000001d0: 56be bcbe cca2 a3be 51b2 20be 2f32 c93e
000001e0: 3272 9fbe f27c 88be 30c8 84bc 20b1 b3bc
000001f0: 1a20 973e 90ba 48be eaaa 913e 1bc1 3d3e
00000200: 80bf bcbe 088c cc3e ae1c 6e3e 5921 9dbe
00000210: 4113 a73e 1508 a4be 0351 c53e ea9e 35be
00000220: 28cc a3bc 6f8c 8abe 401f 7e3a 8175 7abe
00000230: 8703 283e a097 193e 1255 79be ded6 8b3e
00000240: 46c1 063e 84a6 f6bd f840 673e ceb0 803e
00000250: 2894 223d ecab 5e3e 4abc 8cbe a753 d2bb
00000260: 0d55 69be 2a66 263c e830 963d 5bd7 983e
00000270: cbf2 bdbe 6314 61bd f8d0 bdbe ea4a cfbe

conv2.bias f4 [2]
-0.047734614 0.04773461
00000000: 5f85 43bd 5e85 433d

conv2.lin.weight f4 [2, 32]
0.08603083 0.1076579 0.28493685 -0.4006481 -0.25356653 0.14373231 0.015273079 -0.3287441
0.17831719 -0.10821377 0.07244504 0.016488552 -0.035655078 -0.22817433 -0.2771701 -0.38491568
-0.26145196 0.030003004 -0.2962777 0.07477521 0.27239695 -0.3750453 0.36199397 0.23746692
-0.17898013 -0.17614251 -0.4515376 -0.3708889 0.052095912 -0.2582102 0.18325935 -0.42845434
0.043830432 -0.15689322 -0.21546078 0.20693782 0.20620307 -0.17031762 -0.34662697 -0.07262266
-0.319422 0.19037065 -0.039338067 0.164574 -0.3718454 0.03520339 -0.19068027 -0.23067643
0.23076141 -0.21574996 -0.17948277 -0.1736481 -0.09998886 -0.048785046 0.1364518 -0.31082368
0.3672262 -0.06654825 -0.3702841 -0.061523985 0.04113373 -0.12966937 0.08945892 0.21215813
00000000: ef30 b03d bf7b dc3d 3ee3 913e bf21 cdbe
00000010: 79d3 81be 902e 133e f03b 7a3c 2651 a8be
00000020: c898 363e 2e9f ddbd 115e 943d 0013 873c
00000030: 0f0b 12bd 88a6 69be 3de9 8dbe ab13 c5be
00000040: 08dd 85be dcc8 f53c b6b1 97be bf23 993d
00000050: 9d77 8b3e f005 c0be 4657 b93e 872a 733e
00000060: 9146 37be b45e 34be f02f e7be 26e5 bdbe
00000070: 8662 553d 2134 84be 57a8 3b3e 5e5e dbbe
00000080: 8a87 333d 9ea8 20be c0a1 5cbe 82e7 533e
00000090: e626 533e be67 2ebe 1779 b1be 30bb 94bd
000000a0: 488b a3be 86f0 423e f420 21bd 1686 283e
000000b0: 8562 bebe 6e31 103d b041 43be 7136 6cbe
000000c0: b84c 6c3e 8fed 5cbe 55ca 37be cfd0 31be
000000d0: f6c6 ccbd d4d2 47bd 05ba 0b3e 4824 9fbe
000000e0: 1305 bc3e 734a 88bd e195 bdbe 9300 7cbd
000000f0: d87b 283d 0cc8 04be 3d36 b73d fb3f 593e
