teacher_model.pth (torch, 21508 bytes, 6 tensors)

conv1.bias f4 [64]
0	0xbb34aa03	-0.0027567155
1	0xbcd3058a	-0.025759477
2	0xbd2c9240	-0.042131662
3	0xbd297a5e	-0.041376464
4	0x00000000	0.0
5	0x3b089062	0.0020838012
6	0xbd35c72e	-0.044379406
7	0x00000000	0.0
8	0xbd32119d	-0.04347383
9	0x3d355921	0.044274453
10	0x00000000	0.0
11	0xbcb25f24	-0.021773882
12	0x3a550848	0.0008126539
13	0xbd2606bb	-0.040533762
14	0x3d28ff62	0.041259177
15	0xbcc8b671	-0.024501057
16	0xbc461fb9	-0.012092524
17	0xbd27eddb	-0.04099832
18	0xbb04974c	-0.0020231782
19	0xbbbd1473	-0.00577026
20	0xbd1ce802	-0.038307197
21	0x00000000	0.0
22	0x3cd73d84	0.02627445
23	0x3d418986	0.047250293
24	0xbc0e343c	-0.008679446
25	0xbb420fe6	-0.0029611527
26	0xbcec961c	-0.028880171
27	0x3b07e2e0	0.0020734593
28	0xbd31e483	-0.043430816
29	0x3c25bbf7	0.010115615
30	0xbc50a607	-0.0127348965
31	0xbc658e78	-0.014011018
32	0xbc70de89	-0.014701494
33	0xbb330c2b	-0.0027320485
34	0xbcc7026a	-0.024293143
35	0x3d04db63	0.032435786
36	0x00000000	0.0
37	0xbcf349b2	-0.029698227
38	0x3d1e41f3	0.038637113
39	0xbd294534	-0.041325763
40	0x00000000	0.0
41	0xbd22ceb7	-0.03974792
42	0x3c77379d	0.015088943
43	0x3a5a88c4	0.00083364197
44	0xbd3663ae	-0.044528656
45	0xbbced079	-0.006311473
46	0x39c10aa0	0.00036819745
47	0xbd205220	-0.03914082
48	0x00000000	0.0
49	0xbcf18366	-0.029481601
50	0xbcc44d30	-0.023962587
51	0x3d2e75fe	0.042592995
52	0x3d3a9337	0.04555055
53	0x3a42619c	0.00074150576
54	0xbcc92f81	-0.024558784
55	0x3d2a1e78	0.041532964
56	0xbce9c2f1	-0.028535338
57	0x3c378603	0.0112013845
58	0x3a14a7b0	0.00056707393
59	0xbc1dd332	-0.009632872
60	0xbc555081	-0.013019682
61	0x3d2efebe	0.04272341
62	0xbc86acad	-0.01643976
63	0xbb931df5	-0.004489655

conv1.lin.weight f4 [64, 5]
0	0x3e4a6e5c	0.19768661
1	0xbe673127	-0.22577344
2	0xbdcfeb76	-0.101523325
3	0xbe5792c2	-0.21052077
4	0x3e5fe7ec	0.21865815
5	0x3df075c2	0.117412105
6	0xbe51075c	-0.20412964
7	0x3e0fb2d2	0.14033058
8	0xbe6ba4e6	-0.23012123
9	0x3e7c107f	0.24615668
10	0xbe1f6772	-0.15566805
11	0x3c99bc91	0.018766673
12	0xbb9fd62d	-0.0048778267
13	0xbd9022f6	-0.07037918
14	0x3e32ad67	0.1744896
15	0xbe373b60	-0.17893744
16	0xbe629aba	-0.22129336
17	0xbe1a6ac3	-0.15079789
18	0xbde9290d	-0.11384783
19	0x3bbe6239	0.005810049
20	0xbe487ea0	-0.19579554
21	0xbdca8c88	-0.098900855
22	0x3c3f8160	0.01168856
23	0x3d1daac8	0.038492948
24	0x3e825e7c	0.2546271
25	0xbe84160b	-0.25798067
26	0x3d1f6372	0.038913198
27	0xbe2a9d02	-0.16661456
28	0xbdcf54a4	-0.10123566
29	0x3e1a9736	0.15096745
30	0x3e245c4f	0.16050838
31	0x3e526f5c	0.20550293
32	0xbd10f99e	-0.035394304
33	0xbd5b9bc4	-0.053615347
34	0x3e908773	0.2822834
35	0xbcafd9b0	-0.021466106
36	0x3e38883a	0.18020716
37	0x3c1413a0	0.009037882
38	0x3da466e8	0.0802744
39	0x3dfc1964	0.123095304
40	0xbe324b58	-0.17411554
41	0x3d804f56	0.06265132
42	0xbdd77cba	-0.105218366
43	0x3e6f5c9d	0.23375173
44	0x3d430ce2	0.047619708
45	0xbdffc4d5	-0.124887146
46	0xbdbcd3f3	-0.092201136
47	0xbe1952f1	-0.14973046
48	0x3e4a8570	0.19777465
49	0xbe9e886d	-0.3096346
50	0xbd6db6c8	-0.058035642
51	0x3e610f08	0.2197839
52	0x3e3c49e2	0.18387559
53	0xbd8f6e94	-0.07003513
54	0x3e270dd8	0.16313875
55	0x3e8ada93	0.27119884
56	0xbda7fb00	-0.08202171
57	0xbc0d23cc	-0.008614492
58	0x3ba9e054	0.0051842127
59	0x3d07388d	0.033012915
60	0xbdba19af	-0.0908693
61	0x3db8cb3a	0.090231374
62	0xbe182a10	-0.14859796
63	0x3e6dd4d8	0.23225725
64	0xbe0f2aa9	-0.13981117
65	0x3da39ff2	0.079894915
66	0x3e1e05df	0.15431927
67	0x3d6a6ac3	0.057230722
68	0x3dcb8c53	0.09938874
69	0xbdded58e	-0.10880576
70	0x3d8e021f	0.06933998
71	0x3e5ff168	0.21869433
72	0x3d8195f5	0.0632743
73	0xbe167081	-0.14691354
74	0xbe95ed90	-0.29282808
75	0xbe2a6e5c	-0.16643661
76	0xbe1393d7	-0.14411865
77	0xbe1ea833	-0.1549385
78	0xbe3a96df	-0.18221615
79	0xbe4ffadb	-0.20310538
80	0x3e85c1bd	0.26124373
81	0xbe874428	-0.26419187
82	0xbe287c6f	-0.16453718
83	0xbe858b62	-0.26082903
84	0xbe406d31	-0.18791653
85	0xbe0a00df	-0.13476895
86	0x3dd2ba6e	0.10289465
87	0x3e9f9e3a	0.31175405
88	0x3c3cfc3e	0.011534749
89	0xbe0c92ce	-0.13727877
90	0x3e853a7c	0.26021183
91	0x3e346555	0.1761678
92	0xbe681094	-0.22662574
93	0xbe0204b8	-0.12697113
94	0xbe5ab592	-0.21358326
95	0x3de5af28	0.11215049
96	0x3dab9f12	0.0837995
97	0x3e922fb9	0.28552034
98	0xbdb8e35e	-0.09027742
99	0xbdd2ede7	-0.102992825
100	0xbea302c7	-0.31838056
101	0x3e0a3964	0.13498455
102	0x3e33b277	0.17548548
103	0x3e6e8965	0.232946
104	0xbe61da2c	-0.22055882
105	0xbe2a4bf6	-0.1663054
106	0xbcffb080	-0.031212091
107	0x3e3a3a44	0.18186289
108	0xbde73f9a	-0.11291428
109	0x3e1cf046	0.15326032
110	0xbd6415b6	-0.055684768
111	0x3da38655	0.07984606
112	0x3da274b7	0.07932418
113	0xbe0a8242	-0.13526252
114	0x3e69a7c3	0.22817902
115	0xbdf3941d	-0.11893485
116	0xbd5bff14	-0.05371006
117	0xbe1d1f56	-0.15343985
118	0x3e62d83d	0.22152801
119	0xbd41accc	-0.047283933
120	0x3e303eb4	0.1721142
121	0xbe53bf7c	-0.20678514
122	0xbcba7089	-0.02275874
123	0xbdd8c0c4	-0.10583642
124	0xbd13d81e	-0.036094777
125	0x3e21672a	0.1576201
126	0xbe6cb039	-0.23114099
127	0xbe896c04	-0.26840222
128	0x3e03651c	0.12831539
129	0xbe9815a6	-0.29704016
130	0xbdc870d2	-0.09787144
131	0xbe98442f	-0.2973952
132	0xbe407a02	-0.18796542
133	0xbd0962f8	-0.03354165
134	0xbdbef6d2	-0.09324421
135	0x3e9a476f	0.30132625
136	0xbe22d1df	-0.15900372
137	0xbe2fa44d	-0.1715252
138	0xbd9eb344	-0.07749036
139	0x3e8e95a9	0.27848557
140	0xbe89e0e4	-0.2692939
141	0xbdb32392	-0.08747019
142	0x3d943af0	0.07237804
143	0x3d8a9acd	0.06767807
144	0x3b1474f6	0.0022652722
145	0x3e82ec23	0.25570783
146	0xbe901c03	-0.2814637
147	0xbca2be3a	-0.019866098
148	0x3e8c91e7	0.27455065
149	0x3e8c9711	0.27459005
150	0x3d89b0a5	0.067231454
151	0xbe5637bb	-0.20919697
152	0xbe871f0d	-0.26390877
153	0xbe5bf183	-0.21478848
154	0x3d5b0fdf	0.053481933
155	0x3e74d894	0.23910743
156	0x3e06c93b	0.13162701
157	0xbd41259f	-0.04715502
158	0xbe539ee3	-0.20666079
159	0xbe34b9d0	-0.17649007
160	0xbd704fd2	-0.058669873
161	0xbe0b3c06	-0.13597116
162	0x3e65c823	0.22439627
163	0xbe48ffe4	-0.19628865
164	0x3e1f6ea1	0.15569545
165	0x3e044a90	0.12919068
166	0xbe04df7f	-0.12975882
167	0xbe2b4475	-0.16725333
168	0xbe411f95	-0.18859704
169	0x3e258571	0.16164185
170	0xbe30afde	-0.17254588
171	0xbd499a9e	-0.04921972
172	0x3d53a892	0.051674433
173	0xbd29d699	-0.041464422
174	0xbde4c4ff	-0.111703865
175	0xbd4501e8	-0.04809752
176	0x3e22fd01	0.15916826
177	0xbe69b870	-0.22824264
178	0x3e4c92cc	0.19977874
179	0x3e5da27d	0.21644016
180	0xbe0d6b34	-0.13810426
181	0xbe7d3d87	-0.24730502
182	0xbd4d0890	-0.050056994
183	0x3d8ebde4	0.069698125
184	0x3e86b5b6	0.2631051
185	0xbc7b92c7	-0.015354819
186	0xbe05b662	-0.13057855
187	0x3e223421	0.15840198
188	0xbc8c6bba	-0.017141212
189	0x3e955535	0.2916657
190	0x3e4e10ba	0.20123568
191	0x3e026058	0.12732065
192	0x3e6d4f14	0.23174697
193	0x3e068218	0.13135564
194	0xbdd3347d	-0.10312746
195	0xbe3e06d1	-0.18557288
196	0xbbbc36e3	-0.0057438477
197	0x3e71f015	0.2362674
198	0xbe55c827	-0.20877133
199	0xbe082e93	-0.13299017
200	0xbdf8d852	-0.12150635
201	0x3e6af3c8	0.22944558
202	0x3e5f303c	0.21795744
203	0x3e424abc	0.18973821
204	0x3e2a5e6e	0.16637585
205	0xbe8c0e04	-0.27354443
206	0xbd0b627c	-0.03402947
207	0xbd43e448	-0.047825128
208	0x3d497764	0.049186125
209	0xbd269f3b	-0.040679198
210	0x3d717454	0.05894883
211	0xbdd4801a	-0.10375996
212	0xbe2f1da1	-0.17101146
213	0x3e5dee34	0.21672899
214	0xbe3bd53a	-0.18343058
215	0x3df3d0a8	0.119050324
216	0x3da2414f	0.07922613
217	0xbe5441df	-0.20728253
218	0x3e1b14bc	0.15144628
219	0xbd47dfc0	-0.04879737
220	0x3e3e6208	0.18592083
221	0xbd734de6	-0.05940046
222	0xbd142d26	-0.03617587
223	0x3e35091c	0.17679256
224	0x3e76a961	0.2408805
225	0xbb127231	-0.0022345895
226	0xbe02d518	-0.12776601
227	0xbe2516c8	-0.16121972
228	0xbde701f7	-0.11279672
229	0xbd54ed42	-0.05198408
230	0xbdcab76f	-0.098982684
231	0xbe79cd22	-0.24394658
232	0xbe8c3c88	-0.27389932
233	0x3e335f9d	0.17516942
234	0xbd935a0c	-0.071949095
235	0xbea0d4cc	-0.3141235
236	0xbca5719e	-0.020195778
237	0x3e82d984	0.25556576
238	0x3d2e463e	0.042547457
239	0xbe50210b	-0.20325105
240	0xbde44120	-0.11145234
241	0xbd318940	-0.043343782
242	0x3dc2c820	0.09510827
243	0x3e505934	0.20346528
244	0x3e20f658	0.15718973
245	0xbce486ef	-0.027896373
246	0xbddf402e	-0.10900913
247	0x3e7fb720	0.249722
248	0xbda3b95a	-0.079943374
249	0x3e4b7086	0.19867143
250	0x3df8e20e	0.121524915
251	0x3e121143	0.14264397
252	0x3e8f5e43	0.28001603
253	0xbe40c704	-0.18825918
254	0xba035438	-0.0005009803
255	0x3d847637	0.0646786

conv2.bias f4 [64]
0	0xbcf36054	-0.029709019
1	0xbc13f6f0	-0.009031042
2	0xbcee1e68	-0.029067233
3	0x3a5205e2	0.0008011741
4	0x3ab15cce	0.0013531686
5	0x3aafb5ee	0.001340566
6	0xbcf36000	-0.029708862
7	0xbcf36053	-0.029709017
8	0xbcf36056	-0.029709022
9	0x3a91f78e	0.0011136399
10	0xbb6b821c	-0.0035935706
11	0x3c52887f	0.012849926
12	0xbc370976	-0.011171689
13	0xbca1b563	-0.019739812
14	0xbca328ec	-0.019916974
15	0xba0c1a88	-0.00053445296
16	0xbcb34e4e	-0.021887925
17	0xbc50171b	-0.012700821
18	0xbcf36053	-0.029709017
19	0xbc2155b9	-0.009847098
20	0x00000000	0.0
21	0xbcf36056	-0.029709022
22	0xbc08a2a9	-0.008339562
23	0x00000000	0.0
24	0x00000000	0.0
25	0xbcf36048	-0.029708996
26	0xbb22435e	-0.0024759392
27	0xbcf35ff9	-0.02970885
28	0xbcf35ff9	-0.02970885
29	0xbb97023e	-0.0046084216
30	0xbcf36059	-0.029709028
31	0xbd2165d2	-0.039403744
32	0x3c338f23	0.010959419
33	0xbcf35f96	-0.029708665
34	0x3d2c0b67	0.04200306
35	0x3b3906ca	0.0028232806
36	0x00000000	0.0
37	0xbc94f5c0	-0.018183589
38	0xbc5ed28c	-0.013600003
39	0x00000000	0.0
40	0x00000000	0.0
41	0x3d3a2a1f	0.045450326
42	0xbc441435	-0.011967708
43	0xbd1f8654	-0.038946465
44	0xbcf36053	-0.029709017
45	0x3d29d27c	0.0414605
46	0x3adb4334	0.0016728402
47	0x3a208296	0.00061229744
48	0x3c757973	0.014982569
49	0xbca50fae	-0.020149078
50	0xbb1c5738	-0.0023855697
51	0x00000000	0.0
52	0x3a4d5848	0.00078332843
53	0xbcf3604b	-0.029709002
54	0xbb725d68	-0.0036981944
55	0xbcf0beee	-0.029387917
56	0xbb064f43	-0.002049402
57	0xbc45e021	-0.012077362
58	0x00000000	0.0
59	0x00000000	0.0
60	0x3b9cf181	0.0047895317
61	0xbcae4f99	-0.02127819
62	0x00000000	0.0
63	0xbba5d74c	-0.005061066

conv2.lin.weight f4 [64, 64]
0	0x3e2ed2bf	0.17072581
1	0xbce96a11	-0.02849296
2	0xbe5431b8	-0.20722091
3	0x3d826bee	0.06368242
4	0x3a583b00	0.0008248538
5	0xbd49450c	-0.049138114
6	0x3d481723	0.04885019
7	0xbd5e5120	-0.054276586
8	0xbda7b219	-0.08188266
9	0x3db2f0e3	0.08737352
10	0xbde4cf9e	-0.11172412
11	0xbe017fcc	-0.12646407
12	0xbd9fcb89	-0.07802493
13	0xbe3f51bd	-0.18683524
14	0xbe6c3956	-0.23068747
15	0xbdbebb7c	-0.093131036
16	0xbcf311f3	-0.029671645
17	0x3e2a6941	0.16641714
18	0x3da9d332	0.082922354
19	0xbdeb7a7c	-0.114979714
20	0xbe181033	-0.1484993
21	0xbe05b5a4	-0.13057572
22	0xbe24f8cb	-0.16110532
23	0xbdb2fb8c	-0.08739385
24	0x3d91bd38	0.07116169
25	0xbddfc11d	-0.10925505
26	0x3e2bba13	0.167702
27	0x3c911574	0.017710425
28	0xbdd1af61	-0.10238529
29	0xbe6aa911	-0.22916056
30	0x3cfe6c7b	0.031057587
31	0xbd122a23	-0.035684716
32	0xbe4c10d4	-0.19928294
33	0xbe1207d8	-0.14260805
34	0xbdd01b2c	-0.101614326
35	0xbdcbbe59	-0.09948415
36	0x3cef43d0	0.02920714
37	0xb8822640	-6.206008e-05
38	0xbe2c2e9e	-0.16814658
39	0x3e3a50fc	0.18194956
40	0x3df25402	0.118324295
41	0x3e08cd0c	0.13359469
42	0xbe6cc41c	-0.23121685
43	0xbe48621c	-0.19568676
44	0x3e21115e	0.15729281
45	0xbe530b55	-0.20609792
46	0x3d233c60	0.0398525
47	0xbe375c03	-0.17906193
48	0xbe3da3e2	-0.18519548
49	0xbe41eb9f	-0.18937539
50	0x3b6b6979	0.003592102
51	0xbbce0a35	-0.006287838
52	0x3c56f314	0.013119478
53	0xbe1dcb21	-0.15409519
54	0x3dde11f4	0.10843268
55	0x3e3aa4a8	0.18226874
56	0x3e160f4b	0.14654271
57	0xbd97f0e1	-0.07418991
58	0xbe64346e	-0.22285625
59	0xbda0ee7e	-0.07857989
60	0xbe60d5b3	-0.2195652
61	0xbe0798d9	-0.132419
62	0xbe0d0455	-0.13771184
63	0xbb550c86	-0.0032508685
64	0x3d9de563	0.07709768
65	0x3e1e49b6	0.15457806
66	0xbc2306a2	-0.009950312
67	0x3e55341d	0.20820661
68	0xbdae4742	-0.08509685
69	0xbd84dad3	-0.0648705
70	0x3cc151ab	0.023598513
71	0xbe597f40	-0.21239948
72	0x3d3e9de8	0.04653731
73	0xbe32f016	-0.17474398
74	0x3dd10bca	0.10207327
75	0x3b07b901	0.0020709636
76	0x3d3ea403	0.046543133
77	0x3e22a39c	0.15882725
78	0xbe1afe82	-0.1513615
79	0xbb3a9143	-0.002846793
80	0x3e0633b1	0.13105656
81	0x3e2bfa8f	0.167948
82	0xbd6ceb4e	-0.05784159
83	0x3e0a1c76	0.1348742
84	0x3d9bc6b1	0.07606257
85	0xbdb3a930	-0.08772504
86	0xbe59ca8b	-0.2126867
87	0x3c5f1ef6	0.0136182215
88	0xbe2929e5	-0.16519888
89	0xbe2c569a	-0.16829911
90	0xbd5ca620	-0.053869367
91	0xbd9210de	-0.071321234
92	0x3dc35bf3	0.09539022
93	0xbca3b3b6	-0.019983154
94	0x3d2ac77a	0.041694142
95	0x3e371ba6	0.17881641
96	0xbe12058c	-0.14259928
97	0xbe39f8eb	-0.18161361
98	0x3e037297	0.12836681
99	0xbe5bbe5a	-0.21459332
100	0x3c80c5d8	0.01571934
101	0x3df5e26a	0.12006076
102	0xbda44709	-0.080213614
103	0x3d34c423	0.044132363
104	0x3e07728d	0.13227291
105	0x3e28dc3e	0.16490266
106	0xbe5989d9	-0.21243991
107	0xbcfec63a	-0.031100381
108	0xbdb79b6a	-0.0896519
109	0x3db5ac57	0.08870762
110	0x3e1dd229	0.15412201
111	0x3d6edda8	0.058316857
112	0x3df6647e	0.12030886
113	0xbda98baa	-0.08278592
114	0x3da2069b	0.07911416
115	0xbe81b57b	-0.2533377
116	0x3deafdd6	0.114741966
117	0xbd93c00b	-0.07214364
118	0x3e0d0072	0.13769701
119	0x3d98bbb6	0.07457678
120	0xbdcc9640	-0.099895954
121	0xbd35486b	-0.044258516
122	0xbe583cd8	-0.2111696
123	0x3e0b782f	0.13620065
124	0xbe564c18	-0.20927465
125	0xbe651ef0	-0.22375083
126	0x3e24affb	0.16082756
127	0x3d1a7a9e	0.037714593
128	0xbd947cf6	-0.07250397
129	0x3dfbe01c	0.12298605
130	0xbe5fcec0	-0.21856213
131	0xbe25c406	-0.16188058
132	0xbcd3c530	-0.025850862
133	0xbdb0e151	-0.08636726
134	0xbe64e31b	-0.22352259
135	0xbd3ba868	-0.0458149
136	0x3e0e65d3	0.1390603
137	0xbd89fc52	-0.067375794
138	0xbd65805c	-0.056030616
139	0x3e0095c6	0.12557134
140	0x3e2daee2	0.16961244
141	0x3c2c2d32	0.010508822
142	0xbe2836df	-0.16427182
143	0xbe56b248	-0.20966446
144	0x3df26eba	0.11837526
145	0xbc973cc7	-0.018461598
146	0x3d920513	0.07129874
147	0xbdb84d60	-0.08999133
148	0xbc9d1f2e	-0.019179907
149	0xbda0c272	-0.078495875
150	0x3cfd687d	0.030933613
151	0x3cb26fa2	0.021781746
152	0xbdb27ec5	-0.087155856
153	0xbe48ed4f	-0.19621776
154	0x3e3998a4	0.18124634
155	0x3de8fd84	0.11376479
156	0x3e167198	0.1469177
157	0xbe12943b	-0.14314358
158	0xbd93895f	-0.07203936
159	0xbd0e63d1	-0.03476316
160	0xbdee30d7	-0.11630409
161	0xbcd8b024	-0.026451178
162	0xbde75388	-0.11295229
163	0xbda13bff	-0.078727715
164	0xbe4010f0	-0.18756461
165	0xbe22e7c9	-0.15908732
166	0xbe1fbf2a	-0.15600267
167	0xbd5e0c87	-0.054211166
168	0xbc9582c0	-0.018250823
169	0x3d9f9e3e	0.07793854
170	0x3e29d0ce	0.16583559
171	0xbe012659	-0.12612285
172	0xbc159424	-0.009129558
173	0x3de9b9a7	0.114123635
174	0xbe41e02a	-0.18933168
175	0xbe216b73	-0.15763645
176	0xbd55f390	-0.052234232
177	0x3e17cd04	0.14824301
178	0xbdc7e9c2	-0.09761383
179	0x3d866242	0.0656171
180	0xbdbe9f4d	-0.09307728
181	0xbe0445bb	-0.12917225
182	0xbda5df6d	-0.08099256
183	0xbe462934	-0.19351655
184	0x3da5e9b3	0.08101215
185	0xbdbae489	-0.09125621
186	0x3c911a14	0.01771263
187	0xbe49cbaf	-0.19706605
188	0xbe1c1cf0	-0.15245414
189	0xbe59f86c	-0.21286172
190	0xbde404be	-0.11133717
191	0x3cbc473d	0.022983188
192	0x3e296cd3	0.1654542
193	0xbe3ccc35	-0.18437274
194	0xbc2691e3	-0.010166618
195	0xbc39d264	-0.011341665
196	0xbda2ad14	-0.07943168
197	0xbe192d60	-0.14958715
198	0x3e3e4b5d	0.18583436
199	0x3e36129b	0.17780535
200	0xbc819204	-0.015816696
201	0x3d304757	0.043036785
202	0xbd8478c2	-0.06468345
203	0x3dcbb1bc	0.099460095
204	0xbe7c9560	-0.24666357
205	0xbdcb7f43	-0.099363826
206	0xbd912d53	-0.07088723
207	0x3e0a8c89	0.13530172
208	0xbe136706	-0.14394769
209	0xbd9813c7	-0.07425647
210	0x3e47ad99	0.19499816
211	0xbd26905b	-0.04066501
212	0xbe50889e	-0.20364615
213	0xbe3d274f	-0.18472026
214	0x3b808057	0.0039215493
215	0x3e22b677	0.15889917
216	0xbe216ff1	-0.15765359
217	0x3e0d2683	0.13784222
218	0x3e1c0d6f	0.152395
219	0x3e0efafa	0.13962927
220	0x3da64a59	0.081196494
221	0x3e179020	0.14801073
222	0x3e32a057	0.17443977
223	0x3e621778	0.22079265
224	0x3c23b80a	0.009992609
225	0xbe1e16de	-0.1543841
226	0xbe02f03c	-0.12786955
227	0x3d83fe7b	0.06445023
228	0x3d5c960c	0.053854033
229	0xbe59f8ee	-0.21286365
230	0xbe56aa48	-0.20963395
231	0xbe3fb5ba	-0.18721667
232	0x3d8079a2	0.062731996
233	0xbe464fa3	-0.19366316
234	0xbde95aa1	-0.11394239
235	0xbe11d824	-0.14242607
236	0x3e139785	0.14413269
237	0x3d45a0ea	0.048249163
238	0x3dd20810	0.10255444
239	0xbcd0b198	-0.025475308
240	0x3d05cde8	0.03266707
241	0xbb95422b	-0.004555007
242	0x3def6b43	0.116903804
243	0x3e172e85	0.1476384
244	0xbe1e4388	-0.15455449
245	0x3db7ac4c	0.0896841
246	0xbdac885c	-0.08424446
247	0xbe769109	-0.24078764
248	0xbe0a66b7	-0.13515745
249	0x3e0d6d7c	0.13811296
250	0xbe02146e	-0.12703106
251	0xbe45f905	-0.19333275
252	0xbd34d9b7	-0.04415294
253	0xbd90d3c3	-0.0707164
254	0x3e4368bd	0.19082923
255	0xbc6bb05e	-0.014385311

conv3.bias f4 [2]
0	0xbc0ef73e	-0.008725939
1	0x3c0ef73e	0.008725939

conv3.lin.weight f4 [2, 64]
0	0xbe46b245	-0.19403942
1	0xbe86ab5e	-0.26302618
2	0xbde6bf14	-0.11266914
3	0xbd241631	-0.040060226
4	0xbe5e53f6	-0.21711716
5	0xbda9390b	-0.08262833
6	0xbe359f66	-0.17736587
7	0x3dcfc370	0.101446986
8	0xbe890866	-0.2676422
9	0xbdfa303a	-0.1221623
10	0x3e8aa643	0.27079973
11	0xbe3e2483	-0.18568616
12	0xbc4b6ba2	-0.012415798
13	0x3ddd18a8	0.107957184
14	0x3e881c3e	0.26584047
15	0x3e21fdda	0.15819493
16	0xbe1bed76	-0.15227303
17	0x3d3db0fa	0.046311356
18	0xbcea4c34	-0.02860079
19	0x3e824daa	0.25449878
20	0x3d456b88	0.048198253
21	0x3d5f7a93	0.054560255
22	0x3d48d81d	0.049034227
23	0x3e8dc4f8	0.27689338
24	0x3e8cbab0	0.2748618
25	0xbe4704a0	-0.19435358
26	0xbd9454f3	-0.07242765
27	0xbe890d1f	-0.26767823
28	0xbe2ee0ae	-0.17077896
29	0x3e936043	0.2878438
30	0x3e14a6b8	0.14516723
31	0xbe56413c	-0.20923322
32	0xbc97b569	-0.01851912
33	0xbd8fc030	-0.07019079
34	0x3e908660	0.2822752
35	0xbe938500	-0.28812408
36	0xbd0cedc8	-0.034406453
37	0xbde61bc4	-0.112357646
38	0xbe761503	-0.24031453
39	0x3e343b72	0.17600802
40	0xbe699680	-0.22811317
41	0xbd170e80	-0.036879063
42	0x3df2ea18	0.11861056
43	0xbdecdf31	-0.11566008
44	0xbe3e270b	-0.18569581
45	0x3e477a7d	0.1948032
46	0xbe8a376e	-0.26995414
47	0xbdc2471e	-0.09486221
48	0x3e99f4db	0.30069622
49	0xbd1196da	-0.035544254
50	0x3dc995e1	0.0984304
51	0xbd53a7e4	-0.051673785
52	0xbe19e0b5	-0.15027125
53	0xbd756a5f	-0.059915897
54	0x3e165670	0.14681411
55	0xbdcab556	-0.09897868
56	0x3e13a00d	0.14416523
57	0x3e55ffde	0.20898387
58	0xbcc8da10	-0.024518043
59	0x3e8c0822	0.27349955
60	0xbd0450d5	-0.03230365
61	0xbe02d0d2	-0.12774971
62	0xbdd908e0	-0.10597396
63	0x3e79f50d	0.24409886
64	0xbe54c4ae	-0.20778152
65	0x3e87eb75	0.26546827
66	0xbdeb0d92	-0.11477198
67	0x3e66c988	0.22537816
68	0x3e93461e	0.28764433
69	0x3e390ff8	0.18072498
70	0xbe079a0d	-0.1324236
71	0x3d5a8a4b	0.053354543
72	0x3e15e402	0.1463776
73	0x3df8a01f	0.12139916
74	0x3d7b12cb	0.06129722
75	0xbe812384	-0.2522241
76	0xbd2bdb3a	-0.041957118
77	0x3db8f1f8	0.09030527
78	0xbd7b8323	-0.06140436
79	0xbe92c593	-0.28666362
80	0x3e6a13f0	0.22859168
81	0xbe956179	-0.29175928
82	0xbe5f7cb1	-0.2182491
83	0x3e898c4b	0.26864848
84	0xbe5b1e54	-0.21398288
85	0xbe0e5a52	-0.13901642
86	0xbca79a3b	-0.020459285
87	0xbe82b7aa	-0.2553075
88	0x3c3a1560	0.011357635
89	0xbe51c2aa	-0.20484415
90	0xbbe71b85	-0.007052841
91	0xbe6a752b	-0.22896259
92	0xbe1db561	-0.15401222
93	0x3e59893b	0.21243756
94	0xbd53e215	-0.05172928
95	0xbe39c550	-0.18141675
96	0x3e7db849	0.2477733
97	0xbd9ee83e	-0.077591404
98	0x3cf58a9f	0.029973326
99	0x3d979f20	0.074033976
100	0x3ced0e40	0.028937459
101	0x3e79f32d	0.2440917
102	0x3d1ae2ee	0.037814073
103	0x3d99618c	0.07489309
104	0x3e6e7220	0.23285723
105	0xbe3eb5a8	-0.18623984
106	0x3db9a8ff	0.090654366
107	0x3d85fb74	0.065421015
108	0x3e4a7ad3	0.19773416
109	0xbe9d2578	-0.3069265
110	0x3e1bce68	0.15215456
111	0x3de38d0f	0.11110889
112	0xbe0d29ae	-0.13785431
113	0xbd4b2ace	-0.04960137
114	0xbe0fef1a	-0.14056054
115	0xbb392d80	-0.002825588
116	0x3d1e7f67	0.03869572
117	0xbd848fe2	-0.06472756
118	0xbd6d788e	-0.057976298
119	0xbe3d8205	-0.1850663
120	0x3e51e3d1	0.20497061
121	0x3e17e78a	0.14834419
122	0xbe2e860c	-0.17043322
123	0x3e94c09a	0.29053193
124	0x3e79eace	0.24405977
125	0xbe03e27e	-0.12879369
126	0x3e0f4d4c	0.1399433
127	0x3e039b4b	0.12852208
